fashion-feedforward.pth (torch_old, 54789 bytes, 6 tensors)

linear1.weight f4 [16, 784]
000000 a0 61 93 bc df 46 38 3c ba 4a 00 bd 95 59 8f bc
       -0.017990887 0.011247366 -0.031321265 -0.01749877
000010 05 be f3 bc 9b 4a a1 bc 22 54 92 3b 5c 23 c2 bb
       -0.029753694 -0.019688895 0.004465596 -0.0059246253
000020 f6 8e b5 bc a3 4a 47 3c c9 f7 18 bb ac 91 5e bc
       -0.022162896 0.012163791 -0.002334105 -0.013584536
000030 f6 1a 14 3c 1b ca 56 bc 7f f3 39 bc 64 5c 00 3d
       0.009039631 -0.013109709 -0.011349558 0.03133811
000040 e6 14 28 bc 7a a2 f0 3b 20 c0 8d bc 6a 62 c5 bb
       -0.010258889 0.0073435875 -0.017303526 -0.0060236948
000050 89 4d c0 bc 1c 5a 90 3c 85 ec 4b 3b a9 6b 95 3a
       -0.023474472 0.017621092 0.0031116318 0.0011399883
000060 84 6b af 3c e9 5d 18 3b db dc 84 bb f0 69 02 3b
       0.021413572 0.0023249334 -0.0040546483 0.001989957
000070 3e dc 79 3c 63 0f 12 bc a1 df de 3b 90 1e 41 bc
       0.015250264 -0.008914801 0.006801561 -0.011787072
000080 b7 cf 17 bd 6e 1f f1 3c 47 2f ed bc fd 4a 27 bd
       -0.037063327 0.029433932 -0.028953208 -0.040843
000090 95 74 2a bd 1b 12 4b bd af 6f c8 bc a6 97 22 bb
       -0.041615088 -0.049577814 -0.024467317 -0.0024809628
0000a0 7c f3 3c 3c 46 7d e2 3c 20 62 6b 3b 5f 1d 07 3d
       0.011532661 0.027647626 0.0035916641 0.032986995
0000b0 ef d3 ec 3c b4 cd 67 3d 7a ec 46 bc 67 cb 73 bc
       0.028909652 0.05659266 -0.012141341 -0.014880038
0000c0 ef e5 f1 bc 3d 41 3a bd 10 13 30 bc f0 62 b4 bb
       -0.029528586 -0.045472372 -0.010746732 -0.0055049583
0000d0 b9 19 da 3c 65 23 74 3c 76 27 08 bd cc c2 19 3b
       0.026623594 0.014901017 -0.033240758 0.0023462055
0000e0 1c f3 c1 bc 9d 18 49 bc fa b8 b2 3c c5 6e 84 3c
       -0.023675494 -0.012273935 0.02181672 0.0161661
0000f0 5f cb b2 3b d6 d0 e1 3b 26 44 be ba be 53 88 bd
       0.0054563726 0.0068913503 -0.001451616 -0.066565976
000100 4c d8 bd 3a 92 41 39 3a ce 9c 19 bd 4f f0 66 bc
       0.0014484017 0.00070669607 -0.037503056 -0.01409538
000110 5f 98 19 bc 75 de d3 3b b1 81 9a bb 48 e9 b6 3b
       -0.009374707 0.006465728 -0.0047151675 0.0055820085
000120 39 58 25 3d 8c 6a c1 bc bd ec e3 3c 7a be 52 bc
       0.04036734 -0.023610376 0.027822847 -0.012862796
000130 9e 63 95 bc 67 f9 2f bd be 82 81 3a ca 5b 03 3c
       -0.018235978 -0.042962458 0.0009880883 0.00801749
000140 ab 20 04 3d 59 7e e9 bc 82 82 bd 3c c4 cf f1 3c
       0.032257717 -0.02850263 0.02313352 0.029518016
000150 b6 c6 37 3c c2 53 c5 bb da 02 ef 3c 72 dc 10 3c
       0.01121681 -0.0060219476 0.029176164 0.008841621
000160 c6 3f a3 bc 4f ce 45 3b 11 87 a5 3b cd 1f 0b bd
       -0.01992787 0.0030182784 0.0050515016 -0.033965874
000170 50 c7 41 bd 58 6f 0f bd 18 40 86 3c 59 c7 b9 bc
       -0.04730922 -0.035018295 0.016387984 -0.022678064
000180 8c 81 82 b9 6f 74 dd 3c 61 3c a6 3c 20 e6 dc 3c
       -0.00024892052 0.027033059 0.020292463 0.0269652
000190 3c 1f a5 3c 5f 96 6f bc 26 72 08 3d 8b 56 18 bc
       0.020156495 -0.014623254 0.033311985 -0.009297977
0001a0 70 e5 aa bc 97 75 a6 bc 19 ba 23 3c f5 8d 89 3c
       -0.020861357 -0.020319743 0.0099931 0.016791323
0001b0 fc 72 0e bc 31 f8 a0 3c 1b bd 0c 3d 11 9c 01 b9
       -0.008694407 0.019649597 0.034360033 -0.00012360538
0001c0 1d ad 0d 3d 52 94 bb bc 16 9f ac bc cc aa 1b 3b
       0.03458892 -0.022897873 -0.021071952 0.0023752926
0001d0 70 ed 6e bc 65 cb 08 bd 91 99 d6 bc 2e b1 99 3c
       -0.014582977 -0.033397097 -0.026196273 0.018761244
0001e0 6b 81 ce 3c c3 23 dd bc f6 6e fc 38 91 6a 99 bb
       0.025208196 -0.026994592 0.000120369645 -0.004681893
0001f0 1e df 51 bc a5 9a c3 bc 7a 25 8e bc 40 18 f9 bc
       -0.012809543 -0.023877451 -0.017351855 -0.030407071
000200 c4 0b 93 3c 7e e6 be 3b f7 23 ea 3c 78 2d 95 bb
       0.017949946 0.0058258167 0.028581602 -0.0045525394
000210 1f 30 02 3d 8d 44 15 bd 2a 83 ad 3b 14 fd 2c bd
       0.031784173 -0.03644233 0.005295177 -0.04223354
000220 f6 60 e6 bb 7f ee 52 bc d6 87 bf bc 5d 0a d6 bc
       -0.0070306016 -0.012874245 -0.023380201 -0.026127988
000230 9b be 30 3c 0d 9d d7 bc 82 60 f0 3a c1 dd d1 3c
       0.010787631 -0.026320005 0.0018339308 0.025618436
000240 fd 4b 88 3c 16 89 43 bc c3 61 af 3c 1c ca 64 3c
       0.016637797 -0.011934539 0.021408921 0.013964202
000250 9d fc 9e bc 11 b5 d9 3c 28 1a 8a 3b 08 d6 a1 bb
       -0.019407565 0.026575597 0.004214544 -0.0049388446
000260 06 c6 a1 bb 9a 8e b4 bb 5c a2 81 3b 39 77 25 3c
       -0.0049369363 -0.0055101635 0.0039561223 0.010099226
000270 0d dc 90 bc 02 01 07 bd 41 d6 d3 bc 0c bb 4f bc
       -0.017683053 -0.032959945 -0.025859 -0.012678873
000280 c9 97 c7 3c 3b d5 fd bc ec dc 86 bb 75 24 20 bd
       0.024364369 -0.030985465 -0.0041156914 -0.039097268
000290 f3 1e 58 bc 04 88 97 3b 14 13 43 bc de fd 49 3c
       -0.013190973 0.0046243686 -0.011906404 0.012328593
0002a0 a4 5d fc 3b 7f 1a b9 3c 9b cf be 3c 7d 5d cc 3b
       0.0077015925 0.022595642 0.023292353 0.0062367306
0002b0 04 e1 c8 3c 1a d2 1c 3c a5 1d 48 3c 03 2f 84 3c
       0.024521358 0.0095715765 0.012214099 0.016135698
0002c0 73 8a 80 3c e4 61 09 3c 47 bf 79 3c de 89 cb 3b
       0.015691018 0.008385155 0.015243358 0.0062115034
0002d0 e1 3d f7 3c c0 3c 19 bc 00 aa 10 bc 57 01 62 bb
       0.030180873 -0.009352863 -0.008829594 -0.0034485662
0002e0 5c 50 25 bd 14 41 2d bd bd 6d 70 bd 2d 82 82 bd
       -0.04035984 -0.04229839 -0.058698405 -0.06372485
0002f0 d4 52 e2 bc 2c 49 97 3c 0b 63 72 3c 03 56 e8 3c
       -0.027627386 0.018467508 0.0147941215 0.028361326
000300 2d 56 b6 3b 77 7f b2 3c b9 b5 8e 3c c9 aa 51 bc
       0.005564472 0.021789296 0.017420636 -0.012797066
000310 7d 44 dd 3c 64 cb 2e bc 59 ae 97 bb c7 54 07 bd
       0.027010197 -0.010668609 -0.004628938 -0.033039834
000320 5a ef 9c bc 19 3e d2 3c 7a c8 4e 3d 7c ea 50 bc
       -0.0191571 0.025664376 0.050484158 -0.012751218
000330 55 d8 f3 bc f6 07 d0 3c 1f 94 ab bc 9b 9c 9e 3c
       -0.029766241 0.025394421 -0.020944653 0.019361785
000340 48 3c 05 3d 43 8c ab bc 98 83 fa bb 6c f0 e6 3c
       0.03252819 -0.020940905 -0.0076450817 0.028190814
000350 e3 09 07 bc c4 bc 8c bd 04 c5 fb bc 62 05 80 bd
       -0.008242103 -0.06871942 -0.030733593 -0.06251027
000360 c9 ef 7d 3b 31 80 25 bc 64 36 3c 3d 5b 49 6c bc
       0.003874766 -0.010101364 0.04595031 -0.014421786
000370 f2 52 42 bd f8 76 fc bc ee b5 d0 3c 84 2c af 3c
       -0.047442384 -0.030818447 0.025477376 0.021383531
000380 bd 6c 88 bc 4d f0 12 3d 5d b9 a6 bc b7 fa ab 3c
       -0.016653413 0.0358737 -0.02035206 0.020993574
000390 3d fd c2 3c 71 10 b4 bb c2 99 2b 3d fb 77 81 bb
       0.023802394 -0.005495124 0.04189468 -0.0039510704
0003a0 f9 27 78 bb 45 d6 aa bc e6 a5 cf 3c fa 27 38 3d
       -0.0037865622 -0.020854125 0.025347661 0.04496
0003b0 b0 43 fc 3a ca 70 a8 3c 9e d6 8e 3c f8 14 7f 3d
       0.0019246247 0.020561595 0.017436322 0.062275857
0003c0 f0 1c 1c bc a9 0f c3 bc 1f 90 17 bd e7 17 f5 bc
       -0.009528384 -0.023811178 -0.03700268 -0.029918624
0003d0 17 b9 6e bd fc 22 06 bc a9 2b e3 3c f7 3d b4 bc
       -0.058281984 -0.008187052 0.02773078 -0.022002203
0003e0 40 03 36 bd 6f aa ff 3c d1 24 12 bc e1 d0 b7 3c
       -0.044436693 0.031209199 -0.0089199105 0.022438468
0003f0 ab 90 a3 3c 14 55 6a b9 a9 5b 90 3b 6f 7a 0e 3d
       0.019966444 -0.00022347673 0.004405458 0.03478473

linear1.bias f4 [16]
000000 f2 48 6f bd f6 09 c8 3e 3e 81 08 3e 97 d4 0c 3e
       -0.058419175 0.390701 0.13330552 0.13752972
000010 3d ae 6e be a1 68 82 3e af 8a 8d 3e fd cb 89 be
       -0.23308654 0.2547045 0.2764487 -0.26913443
000020 19 c0 db 3e 8d ab 01 3e 2e e8 8e bd 86 eb a3 3e
       0.42919996 0.12663098 -0.069778785 0.32015628
000030 33 4c 25 bd 35 04 24 3e b6 aa a0 3e 9a 69 a0 bd
       -0.040355872 0.1601723 0.31380242 -0.07832642

linear2.weight f4 [32, 16]
000000 eb 32 f0 3d f9 23 3e bc c0 87 bb bd f9 92 dd 3d
       0.11728462 -0.011605256 -0.09156752 0.108190484
000010 50 a6 3f 3e 01 24 c0 3e af 15 f6 3d a3 d3 16 bd
       0.18715787 0.3752747 0.120158546 -0.036822926
000020 cd e3 19 3e e6 e6 f0 3d c3 da 9b 3d 1a 41 92 3e
       0.15028305 0.117627904 0.07610085 0.28565294
000030 7d d5 75 bc 01 2e 2f 3e 65 26 18 bf 39 d7 96 3e
       -0.015004513 0.17107393 -0.59433585 0.29461077
000040 93 14 52 3d 80 e6 82 3e 97 e3 93 3d b1 5a 86 3c
       0.051289152 0.25566483 0.07221144 0.016400667
000050 f3 15 5d be c5 61 dc be ce 03 bf 3d f6 0b 83 be
       -0.21590404 -0.43043342 0.093268976 -0.25595063
000060 f5 91 fb 3e 80 52 9c 3e 1b 04 a9 3c 75 e6 e7 3e
       0.49134794 0.30531693 0.02063184 0.45293012
000070 37 34 97 be 4c 26 56 3e e7 94 cd 3e 86 a5 0a be
       -0.29532024 0.20913047 0.40152666 -0.13539705
000080 1b 8b 05 3e e1 d3 15 bc 4c e4 20 be 29 30 c6 bc
       0.13041346 -0.009144754 -0.15712088 -0.024192886
000090 a9 13 89 be cd 5f 2f 3e d2 26 82 3e 91 69 14 3e
       -0.26772812 0.17126389 0.25420243 0.14493395
0000a0 0f 43 76 bd 5b 0c 6c 3e 6c 79 96 3d a8 5c 55 be
       -0.060122546 0.23051588 0.07347378 -0.20836127
0000b0 4b 20 0c bf 98 b4 85 3e 46 0b c8 3e bc 14 90 3d
       -0.54736775 0.26114345 0.390711 0.07035205
0000c0 70 6b bc bd ee 40 c8 3e 0a b8 d8 be 8c a4 25 3e
       -0.092001796 0.39112037 -0.4232791 0.16176051
0000d0 4d f2 8a bc c4 ef 8f be 45 cd e5 be fe 9c 29 3e
       -0.016961241 -0.28112614 -0.4488317 0.16563794
0000e0 c2 93 c1 3e e0 02 c6 3d fd 0c 55 3d 87 2b 53 3e
       0.37808043 0.09668517 0.05201434 0.20622073
0000f0 be ee bc 3d 5e 1b d5 3e a8 43 9e 3e 40 02 af 3c
       0.09225224 0.41622442 0.30910993 0.021363378
000100 01 5e e3 3d 5c 97 92 be 8a 48 f9 3e 75 bc 2b be
       0.11101914 -0.28631103 0.48688155 -0.1677111
000110 b7 19 77 be 80 73 d8 3d 7a b8 a3 3e 40 05 8a be
       -0.24130903 0.10568905 0.31976682 -0.2695713
000120 3a 29 8e 3d da 1d c7 bd 3d 90 e7 3d 5a 47 b3 3e
       0.06941457 -0.097224906 0.11306808 0.35015374
000130 23 d7 a2 3e e0 24 ee be bf 1d 93 be 53 d6 e1 3b
       0.3180476 -0.46512508 -0.28733632 0.0068920045
000140 bb 7e 8f 3d 1b 9c 04 3e 6c 73 b9 3e b4 c6 75 be
       0.07006594 0.12950175 0.36220872 -0.2400158
000150 78 e6 7c 3c 49 18 e0 3e aa b6 89 3d d4 e8 61 3e
       0.015435807 0.43768528 0.067242935 0.22061473
000160 d6 66 db bd 3f 0d e8 3d fb 90 79 3d 49 2f 6f 3e
       -0.10712974 0.113306515 0.06092928 0.23357882
000170 94 ea 48 3e ea 95 1a 3e b4 7e ff bd 99 bd 02 be
       0.19620734 0.1509625 -0.124753386 -0.12767638
000180 aa 3a 42 be 80 b9 ae 3d e4 f0 d1 3d eb 80 98 be
       -0.18967691 0.08531475 0.10251024 -0.29785857
000190 7b ae 36 be 50 fd 52 3d d7 44 b4 3e d2 fc 38 3d
       -0.17839997 0.05151111 0.3520877 0.045162983
0001a0 39 3f a7 be ae da 9d bc 2a 96 86 be 45 3b 4a be
       -0.32665423 -0.019269314 -0.2628644 -0.19749172
0001b0 fd 1b a1 be 77 89 fc bd e2 65 ae 3c be 4e c1 3b
       -0.31466666 -0.12330907 0.021288816 0.0058992794
0001c0 5b 62 26 3d 94 86 eb bd b2 19 10 be a4 d2 35 3e
       0.040621143 -0.11500278 -0.14072302 0.17756134
0001d0 46 d1 89 3e 53 ee 0d be ab ac 54 be 53 e0 34 be
       0.26917475 -0.13860445 -0.20768993 -0.17663698
0001e0 6c b4 38 3e bd 04 3e 3e f8 de 85 3d eb 75 ad bb
       0.18037575 0.18556495 0.065366685 -0.005293598
0001f0 ec e5 f5 bd 91 e9 01 be 6a e7 6f 3e 9c f0 86 be
       -0.12006745 -0.12686755 0.23428121 -0.26355445
000200 4d f0 a6 3d 53 39 b9 3e e7 ec 73 3e aa 0e 30 3e
       0.081513025 0.36176547 0.2382084 0.17193094
000210 94 43 fa bd 35 18 18 3e 69 12 89 be 8e 38 a9 be
       -0.12219921 0.14852984 -0.26771858 -0.3305096
000220 6d a7 d6 3d c0 f9 00 3e 89 20 4c be f0 94 87 3e
       0.10481153 0.12595272 -0.19934286 0.26480818
000230 dd 8a 18 bd e1 01 d3 3e 5b d5 63 3e ea 7a 09 3e
       -0.037241805 0.4121237 0.22249357 0.13425794
000240 4f 30 85 bd 5b 3c ed 3d ed 1b b3 3d 0b 93 05 bc
       -0.06503355 0.115837775 0.08745561 -0.008152734
000250 f7 75 05 be 82 19 08 3c 7a f1 3a 3e b2 9e 33 bd
       -0.13033281 0.008306863 0.18256178 -0.043852516
000260 b3 8a 45 be 3c 6b b0 bd c0 c6 d7 bc 95 a4 26 3e
       -0.19291191 -0.08614203 -0.026339889 0.1627372
000270 a0 44 bf be c8 49 9f bd d0 58 57 3e e8 3e 74 be
       -0.37357044 -0.077777445 0.21029973 -0.23852122
000280 fd 70 03 be f7 9a b1 3d 0e 0d 98 bd 3f 6a 72 3d
       -0.1283607 0.08672135 -0.07424365 0.059183355
000290 a8 9f c5 be 90 fe 8d 3e 7d 5a 35 3f fb e3 d3 be
       -0.3859837 0.27733278 0.708412 -0.41384873
0002a0 0e 0f fb bd 4f cc c7 3d ae 50 7a bd 5a ac f5 be
       -0.12258731 0.09755766 -0.0611121 -0.47983056
0002b0 93 c8 24 bf 86 8c ef 3d cf 0c 7c 3e 29 3f 1f be
       -0.6436855 0.116967246 0.24614261 -0.15551437
0002c0 f5 ca 56 be 5e 16 79 3e 59 5a 0a bd 26 01 4c bb
       -0.2097586 0.24324939 -0.03377757 -0.0031128614
0002d0 84 85 7f 3e 40 12 ae 3e a8 7f 52 bd 05 d9 71 be
       0.24953276 0.339983 -0.051391274 -0.23617943
0002e0 8a 11 69 3e 00 fd 02 3e 0d ed f4 bd ab 34 8f 3e
       0.22760597 0.12791824 -0.11959276 0.2796987
0002f0 7b 7e a6 be 18 02 2d 3d cb ad 14 be 9b 27 22 be
       -0.32518372 0.042238325 -0.14519422 -0.15835421
000300 8f e6 12 be 37 0f 85 be 51 60 b7 3e b5 97 33 3e
       -0.14345764 -0.2598817 0.3581567 0.1753834
000310 5e b3 0d bf 20 5b 9a 3e 16 95 7c 3e bb 68 f6 bd
       -0.5535182 0.30147648 0.24666247 -0.120316945
000320 40 be 02 be 58 d6 be bd af e8 38 3e 36 02 56 3e
       -0.12767887 -0.093182266 0.18057512 0.20899281
000330 49 06 dc 3d d8 5f 56 3e 34 26 c2 be 9f f2 78 3d
       0.10743386 0.20934999 -0.37919772 0.060778257
000340 58 4b 2c be 7b b3 f1 be 55 64 7e be f4 1b ac 3d
       -0.16825616 -0.47207245 -0.24842961 0.08403769
000350 b5 76 eb bd ad ce 40 be be e4 ec 3e 98 61 ae 3e
       -0.11497251 -0.1882884 0.46268266 0.34058833
000360 f6 84 a4 be d4 9f 88 3d 86 5d 40 3e ea 32 b9 3d
       -0.3213269 0.0667111 0.18785676 0.09042914
000370 16 57 06 be 55 e2 56 3e 92 d3 03 3f 7e 5e 92 3d
       -0.13119158 0.20984776 0.51494706 0.07146929
000380 17 c2 40 3e 58 ae 79 3d 12 9b 93 3e 97 cb c6 bd
       0.1882404 0.060957283 0.28829247 -0.097068004
000390 fc 6a 51 be 91 fb 20 3e 00 1a 0a be ad 07 81 3e
       -0.20450968 0.15720965 -0.1348648 0.2520117
0003a0 18 84 1c 3d 1d bd 0d 3e e8 eb 4a be b2 e0 80 3d
       0.038211912 0.13841672 -0.19816554 0.06292857
0003b0 99 fc 0f 3f 67 c2 dd be 55 62 4e 3d 59 ce 76 be
       0.5624481 -0.4331238 0.050386745 -0.24102153
0003c0 e5 22 81 3d 3b da a9 3d 56 19 a7 3e ca ce 62 be
       0.06305484 0.08293577 0.32636517 -0.22149196
0003d0 56 ff b0 be e9 ab e1 3d c8 c8 ca 3e 05 08 49 3e
       -0.34569806 0.110191174 0.3960631 0.19631965
0003e0 6e 63 28 3e 24 31 50 3e 99 5f 47 be f7 a9 74 3d
       0.1644418 0.20331246 -0.19470061 0.059732404
0003f0 f7 ba 0a bf 54 69 5e be 87 95 24 3d c7 3f 97 bd
       -0.54191536 -0.21719867 0.040181663 -0.073852114

linear2.bias f4 [32]
000000 85 4f d8 bd ba 39 e5 3e 57 09 8b 3e 25 f2 e0 3e
       -0.10562042 0.44770604 0.27155563 0.43934742
000010 00 b9 28 bc 55 44 60 be f9 f4 89 be 13 dd 47 be
       -0.010298014 -0.21901067 -0.26944712 -0.19517927
000020 24 eb c5 3e 89 1a 15 3e 7e 6c 0f 3f fd 9e 55 3e
       0.3865596 0.14560904 0.5602492 0.2086143
000030 44 a4 67 3e c0 45 94 be 51 31 bd bb 8f bb 00 3f
       0.22621256 -0.28959465 -0.0057737012 0.5028619
000040 5f 44 06 be f9 1f 09 be b2 e4 43 be 83 ca 86 bd
       -0.13112019 -0.13391103 -0.19130209 -0.06581595
000050 fa c1 73 bd 77 aa 00 3f f0 7a 91 3b 8c 9a 61 bc
       -0.059511162 0.5026011 0.004439704 -0.013769757
000060 1d 0c 9f 3e 47 63 1e 3e e8 af 45 3e 0d 63 6a bd
       0.3106393 0.15467559 0.19305384 -0.05722337
000070 b2 ba 53 3f 12 32 3f 3c fc f5 03 3e 7d 86 85 3e
       0.8270675 0.011669653 0.12886804 0.2607917

linear3.weight f4 [10, 32]
000000 9c 01 24 be cd 33 51 3e 95 51 47 bd 0b 73 03 3f
       -0.16016239 0.20429917 -0.048661787 0.51347417
000010 68 02 c3 be 40 6e 90 3e f4 ca 1e 3d 4c e0 0d 3d
       -0.38087773 0.28209114 0.03876777 0.034637734
000020 e6 38 f6 3e 19 ec 21 be 97 5f 48 be ae 90 d8 bd
       0.48090285 -0.1581272 -0.19567715 -0.105744705
000030 a1 1c 4c 3d a3 7f a0 bd 50 9c b7 bd 51 f7 a3 be
       0.04983199 -0.07836845 -0.08965361 -0.32024625
000040 bb eb 61 bc 29 f9 3e be 16 91 f0 3c ec 40 8f be
       -0.013789113 -0.18649735 0.029366057 -0.2797922
000050 c5 1c ba be 91 82 87 3e 24 14 c8 3c 91 b7 85 bd
       -0.36350074 0.26466802 0.024423666 -0.06529153
000060 fc 16 42 3e 00 f0 a7 3e 57 2d e3 3e fd 6b 05 3e
       0.1895408 0.32800293 0.4437053 0.13029476
000070 46 cd 9c be f3 9e 25 3c 93 84 77 3d 3c 6c a9 bc
       -0.3062536 0.010108697 0.060429167 -0.020681493
000080 34 8b f4 3e 38 61 13 bf a0 69 f6 bd 75 78 8b be
       0.47762454 -0.5757022 -0.12031865 -0.2724034
000090 93 6d c1 3d 9b 33 f6 3e 7f 50 dc bd 89 a5 8b 3d
       0.09444728 0.48086247 -0.10757541 0.06818683
0000a0 d1 e2 2e 3d cd c9 4b 3e 1f 8b 08 be 49 3f 18 3e
       0.042696778 0.199012 -0.1333432 0.14867891
0000b0 07 24 12 3f cb 5f 14 bd 63 75 cd 3d c2 dc 7e 3e
       0.57086223 -0.036224168 0.10032155 0.248889
0000c0 65 64 74 bd c3 b0 a2 be a0 09 eb 3d 10 f4 a2 be
       -0.059666056 -0.31775483 0.11476445 -0.3182683
0000d0 54 5a da 3d 4c 9a 42 be b1 d6 06 bf f9 9f 86 bd
       0.1066176 -0.19004172 -0.52671343 -0.06573481
0000e0 87 56 f9 bc 45 0f ce 3e ed 10 e6 3c a1 2a 17 be
       -0.030436767 0.40246025 0.028084243 -0.14762355
0000f0 5f 64 01 bf 05 4b df bd 9d 2a 06 bf 93 d6 10 3f
       -0.5054378 -0.10902981 -0.5240877 0.56577414
000100 b8 99 7f bd 74 e1 14 3d 6e 24 f1 be ae 78 4d 3e
       -0.062402457 0.03634782 -0.47098106 0.20065567
000110 1e 17 19 3f 85 c3 66 3e f0 0a 0e 3e b7 b8 ee 3d
       0.598009 0.22535522 0.1387136 0.11656325
000120 ac 68 4f 3e 63 ab 1a be e1 8e 0b bd cb 23 eb bd
       0.20254773 -0.15104441 -0.034071807 -0.11481436
000130 e8 c6 98 3e a0 b4 67 be fa a9 f4 3e 02 0f 50 bd
       0.29839253 -0.22627497 0.47785932 -0.050795563
000140 16 e3 a6 be 03 a1 37 bc f0 fb e4 bd 34 1e eb 3e
       -0.32595128 -0.011207822 -0.11180866 0.4592148
000150 99 da 87 be 0a e3 2b bd d4 4d 30 3e 48 9c 13 3d
       -0.26533964 -0.04196457 0.17217189 0.036037713
000160 75 ef 16 3e a4 8b 81 be e5 2d 9d 3d 33 1e dc 3d
       0.14739783 -0.2530185 0.07674769 0.107479475
000170 d2 79 7d be aa c6 05 3f ac 44 9d bd 9a 99 ec bd
       -0.24753502 0.5225626 -0.07679114 -0.11552735
000180 b9 c8 66 be 8d 25 d8 3e 74 13 73 3c 92 54 ce bb
       -0.22537507 0.4221615 0.014836181 -0.0062967027
000190 e3 1d 93 bd 52 ee dc 3d 00 1b d3 3d eb a4 ed bd
       -0.07183435 0.107876435 0.10307884 -0.11603721
0001a0 22 61 e0 3e 0a cf 8f 3e 3e b3 76 be 94 95 72 3e
       0.43824106 0.28087646 -0.24091813 0.23689872
0001b0 68 4b 37 be 98 68 82 be 78 24 02 3c 11 40 03 3e
       -0.17899859 -0.25470424 0.007943265 0.12817408
0001c0 d8 bd 5c be 96 b9 33 3d df bd 48 be 47 65 3e 3d
       -0.21556795 0.04387816 -0.1960368 0.046483304
0001d0 11 66 db 3e 5f b6 07 bf cc bf 91 3d 64 58 37 3e
       0.42851308 -0.5301265 0.071166605 0.17904812
0001e0 d4 31 00 3d cc da 2c be 8e 87 9b 3e f2 b5 f1 3c
       0.03129752 -0.1688034 0.30376858 0.029505704
0001f0 8f 48 02 3e 8a 8d c2 be 7f be fd bd 9d 9a 89 3e
       0.12722991 -0.3799861 -0.1238985 0.26875773
000200 9c 97 5e 3e 56 aa 76 be 60 60 e9 be 91 ac f7 bd
       0.21737522 -0.24088416 -0.4558134 -0.12093461
000210 91 21 00 3f 6d 89 81 3e d4 b8 09 3d 35 fd 2f 3d
       0.5005122 0.2530016 0.03362353 0.042966086
000220 66 d0 d0 3c 6a 25 27 be 94 8a 40 bc 74 29 16 3d
       0.025489997 -0.16322866 -0.01175179 0.036660627
000230 bf e5 d9 3c bd bd ca be 7c 18 65 3e 2b c3 cd be
       0.02659881 -0.39597884 0.22372621 -0.40187964
000240 ff 6b 70 3e 2b fa 01 3f b9 c7 1c bd 12 6a 9d 3e
       0.23478697 0.5077235 -0.038276408 0.30744988
000250 82 f6 cf 3d fd 27 56 bd be 6c 66 3e 3a be a5 3e
       0.101544395 -0.05228423 0.2250242 0.32371694
000260 7f f0 18 be d7 d6 0f bf b3 78 c8 3e 24 de 2c 3e
       -0.14935492 -0.56187195 0.39154586 0.16881615
000270 f3 d9 33 3d 1a 94 97 3e fd 1e 51 be d2 9c 83 3d
       0.043909024 0.2960518 -0.20421977 0.064263955
000280 0c 27 40 be c4 58 e2 3e ba 9c ac 3e 0a 1c 16 be
       -0.18764895 0.44208348 0.33713323 -0.14659134
000290 f8 66 ae be 79 82 22 bf 35 ba e9 be 9f 7f 74 bd
       -0.34062934 -0.63480335 -0.45649877 -0.05969202
0002a0 0d e7 cc bd 93 c1 0d bd 01 5e 08 3f 62 37 21 be
       -0.10005007 -0.034608435 0.5326844 -0.15743783
0002b0 e6 b9 29 be 31 77 c0 bd d8 6f 0b bf b8 3a 8b 3e
       -0.16574821 -0.09397734 -0.54467535 0.27193236
0002c0 80 04 49 bd 34 87 cb bc 85 fe 1f 3e 7b 65 9f bd
       -0.049076557 -0.024844743 0.15624435 -0.07783028
0002d0 24 91 0f bf 23 37 53 3f 1e 11 b6 bc 66 0d 03 be
       -0.5608084 0.82506007 -0.022224959 -0.1279808
0002e0 b7 95 84 3e 1a f5 0f be cc 39 52 bf d1 49 33 3e
       0.25895473 -0.14058343 -0.8211944 0.17508627
0002f0 46 08 49 3f 9e f3 b3 be 02 b8 dd 3e 9e 24 24 3c
       0.7852825 -0.35146803 0.4330445 0.010018496
000300 7b 73 7c 3e ea b6 43 3d 65 48 0f 3e 62 41 14 3f
       0.24653427 0.047781862 0.1399246 0.57912266
000310 8d 9f bd 3d ec f3 42 3c 1c db 9a 3d bc 60 02 be
       0.092589475 0.011898976 0.07561323 -0.12732214
000320 45 41 7d 3e 17 e5 06 be 89 18 ab be 17 a5 bf 3e
       0.2473193 -0.13173328 -0.33417156 0.3743064
000330 a8 9f 8c be 89 0e 95 3e 7c 6e d7 bc fb fe 41 be
       -0.27465558 0.29112652 -0.0262978 -0.18944924
000340 9b 6e bb 3e 8f e3 f4 bc 22 28 af 3e ff 53 00 3e
       0.36607823 -0.029893665 0.34210306 0.12532042
000350 c3 b0 e5 be 86 22 e7 3c 7a 1e e4 3c c9 07 10 3c
       -0.4486142 0.028214704 0.027846564 0.008790919
000360 45 c7 92 be ea 75 f0 bc 2a 1a f9 3e 75 38 34 3a
       -0.28667656 -0.0293531 0.48652774 0.0006874868
000370 e1 78 00 3f 56 6f e4 3e 33 9f 0d bf ff e0 96 be
       0.50184447 0.44616193 -0.55321044 -0.29468533
000380 1b 59 82 3c 23 7a aa be a7 c9 ca 3e 2d 09 29 bf
       0.01591163 -0.33296308 0.39606974 -0.66029626
000390 75 56 29 3d 73 01 23 be 05 77 b7 3e 2c 65 cd bd
       0.041342217 -0.15918522 0.35832992 -0.10029063
0003a0 a1 39 00 bf 99 15 71 3e c3 71 73 3f ec 08 06 3e
       -0.50087935 0.23543395 0.9509546 0.13089341
0003b0 32 08 89 3e 3f 6f 89 3e 38 02 a1 be b1 4a db 3e
       0.26764065 0.26842687 -0.31447005 0.42830423
0003c0 a3 3f c7 bb 75 4e cf bd 68 03 d1 38 73 61 02 bf
       -0.006080584 -0.10122386 9.966531e-05 -0.50929946
0003d0 6c 07 a7 3e e9 4b c5 be 5d 05 eb be 53 25 a9 be
       0.3262285 -0.38534477 -0.4590253 -0.3303629
0003e0 39 5f a5 3e 71 74 8f 3d 68 b8 52 be c3 7c 1d be
       0.32299212 0.07004631 -0.20578158 -0.15379624
0003f0 36 cb ef 3d 02 b8 80 be 8b 7e b4 3e 21 65 58 3e
       0.11708681 -0.25140387 0.35252795 0.21132328

linear3.bias f4 [10]
000000 58 ac 1f 3c 7b 5c 31 3d ae c8 e4 3d 16 e9 05 bd
       0.00974568 0.043301087 0.11171089 -0.03269299
000010 75 c9 d7 be 71 59 7e 3f 9f 57 1f 3e 41 9a d6 bd
       -0.42145887 0.99355227 0.15560769 -0.1047864
000020 52 b6 8e be 92 a8 09 bf
       -0.27873474 -0.5377284
